Soccer-Environment/example_team_agent/checkpoint.pth (torch, 60375 bytes, 6 tensors)

fc1.weight f4 [32, 336]
00000000: 3477 3dbd 84d7 813c 5d42 2dbc aee7 ea3b
00000010: a1a7 5b3c 68c2 cfbb 6842 883d 00da 8dbd
00000020: 0a02 a7bc ce3e 41bc 481a 52bd 727e 663c
00000030: 6240 1fbc 40b7 f63b 53b9 1dbc ff3f f6bb
00000040: 32b0 1dbd 06de 39bd e4b8 4cbd f578 fe3c
00000050: eb29 673c 2f34 543d 83f6 7c3d 462e fbbd
00000060: b464 713c 1416 33bd b6d8 cd3c 5fcb 5abd
00000070: 24e2 b4bc d994 38bd f2f8 8fbc 91f7 bfbd
00000080: 0800 f53b 1026 ffbc 3e16 23bd 03ff 373d
00000090: c215 b63c 40eb 97bd a392 4cbc a16e e4bd
000000a0: 176f f3bc 4197 81bc 8071 c4bb c207 87bd
000000b0: b291 5abc c48c 46bd f66f d03c 11e7 71bd
000000c0: 5c75 01bd 5ecf 383c 5045 27bd d90d 59bd
000000d0: 9968 d4ba 117e b8bd 9ad8 a1bc 05e4 d3bd
000000e0: 46e2 873c 68af 9b3c 064e f83c 5b2e e83c
000000f0: da67 1bbc 5dff 18bd c254 223d 12cb 98bd
00000100: c60d 9b3d 5fb8 813c f3bd b4bb 980d 9cbd
00000110: b7d0 273d 87c6 51bd 10ca 843c 2cb0 2cbd
00000120: 50be 123b 3991 eb3c c0d0 2ebb 4d6d 1cbd
00000130: 45b2 0b3d 01d3 3e3d cf47 96bc 44dd 80bc
00000140: 5fd9 a53d 88ef 1a3d 1c75 cbbc 0249 8bbd
00000150: 8a4f be3c 1730 22bd 6a1d ea3c 48a6 98bd
00000160: f829 dc3b 7cae ff3c cee0 99bd 00c7 19bd
00000170: c009 39bd ed62 5c3d 1b41 e1bb 9f08 c0bd
00000180: 600a 8a3a e4d7 4cbd a002 5cbd 477f 033d
00000190: f6c4 993c 7cd3 4bbd 90e7 933d 754b 7bbd
000001a0: 2702 2e3d 6ca8 ad3c a529 25bd 025a 4abd
000001b0: a0c6 0b3c 8099 d4b9 dead ae3c 8b2f b4bd
000001c0: 76d9 0dbd 83a3 4fbd 5964 443d 1fc7 1dbd
000001d0: ef40 4d3b 2b7a 4dbd 9eb9 863d 2aa6 abbd
000001e0: 41da 23bd 2aa9 18bd eef6 5e3c 495f 26bd
000001f0: 57b5 25bd 9f8c 9bbd ae94 173d a212 05be
00000200: 063b b53c 637f 883b 665f 2bbd fea0 0fbd
00000210: a805 04bc 6609 c03c b9f9 723b 9ba2 c9bd
00000220: 4d95 d2bb 7802 dc3c f455 7dbd b899 23bd
00000230: 1095 343b 3927 c7bc 6312 483d 1138 e0bd
00000240: 1e3c fe3c a612 19bd b004 41bd f9ea 98bd
00000250: c8f1 dabc 921c bcbc 4950 743d 78cf 32bd
00000260: 7390 123d 7530 b6ba 995d 8bbd ef5e e7bd
00000270: bf35 ecbc bba2 98bd 4310 433d b50a edbd
00000280: f5e8 3f3d 7a1f 69bc b092 0dbd 7f15 343c
00000290: c6cd f6bc a0e8 7ebb 355b 0cbb a9ba bd3b
000002a0: 04c8 6d3c dbd6 eeb9 a94b 793b 3c8e e9bc
000002b0: 9d60 cdbc 8aa9 8fbd 2eb6 d93c 708f 0fbe
000002c0: e815 b43b c78f dfbc ed2f 29bc 7044 92bd
000002d0: d4c5 b0bc 02ce 953c f424 2e3d a430 53bd
000002e0: f689 0dbd cdc5 973c 4d64 1c3d 69e8 35bd
000002f0: 3052 36bb 3cd0 7cbc 052d 643c d462 d8bc
00000300: e929 533d 26c5 88bb 3959 adbd 0e8c a5bd
00000310: 30b2 123c 0d98 043d 3861 493d 04fb aabd
00000320: 0d77 4e3d 0d29 163b 7a59 e83c c480 87bd
00000330: 1a2f 1dbc 9233 9dbc c22f 20bd ec22 71bd
00000340: 6d7b 633d be27 403d f117 57bc 14f3 ffbc
00000350: 9573 c0bb 8057 0fbb 1377 c83a 6fd4 79bd
00000360: 5ecc 0abd 822f 673c 2381 5b3d de55 be3a
00000370: 4feb 5bbd fbcb 1c3d cea7 473d 8ce9 56bd
00000380: defb a93d cf45 24bc 2169 94bc d4c5 11bd
00000390: 8c75 d3bc 9f56 62bc c70d 203d 1f72 f8bd
000003a0: c669 adbc 64fc 4f3d 346e adbc 280b b93c
000003b0: fef9 90bc 202a 79bc a7ab d4bc 7d79 1fbd
000003c0: c534 6dbd 59d5 453c d803 4bbd 2931 25bd
000003d0: bd49 2fbd 86ae 50bd 29fe 513d 66c8 1abd
000003e0: 395f 013d 413c 22bd 068b fd3c faa6 f7bc
000003f0: 5129 213c 8cc1 34bd 0dda 1b3c 6439 7abd
-0.04625626 0.015849836 -0.010574904 0.0071687317 0.013406665 -0.0063403137 0.06653291 -0.06926346
-0.020386714 -0.011794759 -0.051294595 0.014068233 -0.00971994 0.0075291693 -0.009626704 -0.007514953
-0.03849811 -0.045377754 -0.049981013 0.031063536 0.014109115 0.05180758 0.06175853 -0.12264685
0.014733482 -0.043722227 0.02512775 -0.053416606 -0.022080489 -0.045063827 -0.017574761 -0.093733914
0.0074768104 -0.03114608 -0.039816134 0.044920933 0.022227172 -0.07417917 -0.012486133 -0.11153913
-0.029716058 -0.015819194 -0.0059949756 -0.065932766 -0.0133404005 -0.04847409 0.025444012 -0.059058253
-0.031606063 0.011279909 -0.040837586 -0.05299172 -0.0016205489 -0.0900842 -0.019756604 -0.10346226
0.016587388 0.019004539 0.030310642 0.028342417 -0.009485209 -0.03735291 0.039631613 -0.074606076
0.075709864 0.015834985 -0.005515808 -0.0761978 0.04097053 -0.05121472 0.016209632 -0.042160198
0.0022391267 0.028755771 -0.0026674718 -0.038190175 0.034105558 0.046587948 -0.018344788 -0.015730508
0.08098101 0.03782609 -0.024836116 -0.068010345 0.023231287 -0.039596643 0.028578479 -0.07453591
0.0067188703 0.03121113 -0.07513581 -0.037543297 -0.045175314 0.05380528 -0.0068742163 -0.09376644
0.0010531656 -0.050010577 -0.05371344 0.032103803 0.018770676 -0.049762234 0.072219014 -0.06135126
0.04248252 0.021198474 -0.04032292 -0.049402244 0.008531243 -0.00040550157 0.02132314 -0.087981306
-0.034631215 -0.050693046 0.04794726 -0.038519975 0.003131922 -0.050165337 0.065783724 -0.08381303
-0.040003065 -0.037270702 0.013608677 -0.040618215 -0.040456142 -0.07595181 0.037007026 -0.12995389
0.022122871 0.0041655763 -0.041839026 -0.035065643 -0.008057989 0.023441982 0.0037075116 -0.09845468
-0.0064264894 0.026856646 -0.06184955 -0.03994152 0.0027554668 -0.024310695 0.04884566 -0.10948194
0.031034525 -0.0373713 -0.04712361 -0.074666925 -0.026726618 -0.022962842 0.05964688 -0.04365489
0.03578229 -0.0013899939 -0.06804962 -0.11297404 -0.028834222 -0.074529134 0.04762293 -0.11574308
0.046853025 -0.014228696 -0.03456372 0.010991453 -0.030127417 -0.003889598 -0.0021416668 0.005790074
0.0145130195 -0.00045554977 0.0038039482 -0.028510205 -0.025070483 -0.07014759 0.026576128 -0.14019561
0.0054957755 -0.027290238 -0.010326368 -0.0714196 -0.021578707 0.018286709 0.04251571 -0.05156006
-0.034555398 0.018526936 0.03818159 -0.044411097 -0.0027819984 -0.015430506 0.013926749 -0.026414312
0.05155364 -0.0041738926 -0.084642835 -0.08083354 0.008953616 0.03237157 0.04916498 -0.08348659
0.050406504 0.0022912652 0.028362978 -0.06616357 -0.009593749 -0.01918963 -0.039108045 -0.058871195
0.05553763 0.0469129 -0.013128267 -0.031243838 -0.0058731535 -0.0021872222 0.0015294276 -0.060993608
-0.033886306 0.014110448 0.05358995 0.001452144 -0.053691205 0.03828047 0.048744015 -0.05246882
0.08299993 -0.010026409 -0.018116536 -0.035589054 -0.025812887 -0.013814597 0.03907564 -0.12131142
-0.0211686 0.050777808 -0.021170713 0.022588328 -0.01769733 -0.015207797 -0.025960756 -0.03893422
-0.057911653 0.012074792 -0.049564213 -0.040330086 -0.04279493 -0.05094769 0.051267777 -0.03778877
0.031584952 -0.039608244 0.03095008 -0.030230988 0.009836511 -0.044129893 0.009512437 -0.06108989

fc1.bias f4 [32]
00000000: 6751 ccbd 24ee c0bc aaa3 00be 66a6 6ebc
00000010: 8f8a 6f3c 5721 5ebc 32d9 1dbe f280 9dbc
00000020: 3fae 51bd 42ed 74bd 4a76 85bd 658a 753c
00000030: fba2 42bd 5049 0bbd b07d 28bd 936a 85bd
00000040: 0f52 5dbd ad0c 1cbe fbf0 0dbc 073a c6bd
00000050: bb53 bcbd 8547 363c 9f9b 2cbd 97e4 4bbc
00000060: f46a 1fbd 336a 64bd 2007 9ebd 3d20 57bd
00000070: 9693 3cbd 9cf8 30bd 57c0 babd 73e0 32bd
-0.09976464 -0.023551054 -0.12562433 -0.01456604 0.014620437 -0.0135577535 -0.15414885 -0.019226525
-0.051191565 -0.05979658 -0.065167025 0.014986609 -0.04751871 -0.034005463 -0.04113549 -0.06514468
-0.054033335 -0.1523921 -0.008663411 -0.096790366 -0.09195658 0.01112545 -0.0421406 -0.012444637
-0.038920358 -0.055765342 -0.07716203 -0.05252098 -0.046039186 -0.043205842 -0.09118717 -0.043671083

fc2.weight f4 [64, 32]
00000000: 480c 94bd 009d 963b 0ea5 60bd 647c c1bd
00000010: 0668 3fbe 8db0 ea3d ba5d 2bbe c9a9 c5bd
00000020: 5205 cfbd 8034 893b c61e cbbd 82d1 17be
00000030: 12c2 b73d b916 183c 501a fb3d e9c1 f4bd
00000040: 9064 79bc 34e0 273e 33f2 853d 26e3 02be
00000050: cc55 6ebd b7fb 1e3e f801 ddbb 9066 d9bd
00000060: 6a0d a63d 40ce f1bd 8e3d 08be b9dd 103e
00000070: 5ace 06be 389b 7abd 4448 2b3b 8e1a edbd
00000080: f09a bcbc 093d b83c e1cf 3bbe 1947 043e
00000090: 311b ef3d 871e d43c 88f0 5b3e a9fb efbd
000000a0: 5d0c 053e 0c74 33be 305f 543d d2f8 efbb
000000b0: 2684 c7bd 12a8 c93d 9631 333e 935d 31be
000000c0: b2c3 47be 629b 873c 5caa b8bd 9312 5d3d
000000d0: a9bb eabd 53cc dcbd b79a 77bd bc86 e13d
000000e0: a8cd ac3d 5e39 0b3e 8869 b23c 5c13 90bd
000000f0: 3845 0e3d a43e 0d3d dfd4 e03d da44 ba3d
00000100: aa83 a2bd 40cd 933d 3019 a93d c37b 0fbe
00000110: f905 163e dd3d 0ebe 7c71 00be f6d3 9b3d
00000120: fd64 423d f18f 1a3e 6ab7 503d f0eb bebc
00000130: 5c86 db3d 7c2f 63bd 869e 243e 4186 303b
00000140: 189e 303d 83fd 2fbd 1705 b53d bcfd 063e
00000150: 4998 28bd 3bb1 aabd 5c39 15bd cd9e 153e
00000160: 8def 3c3d 3b12 013e e042 c03b aaf3 133e
00000170: e808 ddbd db96 2cbe 02fd 633e a0b0 063c
00000180: c67c 25be 6af7 70bc f7d4 4b3d 4c13 eebd
00000190: c8f3 38bd bba1 ef3d 9dd9 efbd b971 413e
000001a0: 5947 72bd 8456 0f3c a713 0fbe 9e16 c83c
000001b0: 3e1e 353e 602d 043e e828 843d 5720 51bd
000001c0: 69f3 17bd 14ce 5ebc fee6 acbd 55fc 12bd
000001d0: 94e4 ea3d 5163 d93d ee1f 7f3d 2878 943c
000001e0: ccc2 c63d 0923 d83c 9c38 813d 01ce c3bd
000001f0: 6066 173d d4d4 a3bd 001e debd 6f99 c0bd
00000200: 686b d7bc 0fd2 39bd 6da3 ed3d 6acd 3f3d
00000210: 5c7a c73d a50b 3f3e 4fa6 aebd af0d e03d
00000220: 8a86 57bd bec8 42be b372 ea3d a158 4abc
00000230: 0a51 85bd ccd9 3fbd ff23 683b 3d43 81bc
00000240: 97bc 13be 7646 2b3b 320d 22be 191f 39be
00000250: 9f9d 40be d517 84bc be30 f9bc c8de 9abd
00000260: 98f8 09bd b68f 23be cc22 963d 157e 39bd
00000270: 0c2c afbd 2563 7cbd 22d2 9b3d 197d c6bd
00000280: 7327 e6bd f424 15be 0117 38be 147c b0bd
00000290: 1402 c8bd d082 eabc 06b1 03bc aa9c c7bd
000002a0: b0dd 493e 4797 2e3e 4ec6 c73d bcbb c6bd
000002b0: 40f8 16bd 28ca ee3d 7c4a 0e3d 24f3 13be
000002c0: eaca 0abd 0258 533d 3cc9 073e 3f6b 2c3d
000002d0: e3fa 45be 8767 9bbd 735d 31be 5177 103e
000002e0: f984 093e 3648 a9bd 2ace e63d d034 17be
000002f0: 629d 1abe 3e38 1cbe 7ba2 b23d 0e9e b0bd
00000300: 4020 b03b 1f40 123e 7baa 153e a8ae 0ebe
00000310: 00de 013b 7c82 acbd 38fd 9c3c 3825 c6bc
00000320: 51c9 e9bd d10b 34be 770d bcbd 480c 96bd
00000330: bcfc 433d 66c4 2ebe 69f0 c5bd b0ea 1bbc
00000340: 4079 f13c 9aba 953c 1039 a7bd 04e9 6a3d
00000350: 9a22 02be 980f 00bd 3c1f 0dbe b7a9 2dbe
00000360: ac52 24bd a697 2bbe 3880 89bd a633 963d
00000370: 1af2 a63d 0af1 edbd 9021 09bc 6816 e7bc
00000380: 9542 0c3d 8cbb 563d 5e9c 7f3d 1bb3 ef3d
00000390: 1d4d debd 1397 b9bd 2b6f f9bd 877d 163e
000003a0: 5565 ca3c acab 3e3d 0c05 26bd 74b5 26bd
000003b0: 9be7 c0bc f277 3ebe 6c1b 9a3d c3df b4bd
000003c0: 6cef 95bd 9e7d f3bd 6541 6e3d 703f 86be
000003d0: d488 69bd 825a 0e3e 1a8f 12be 7885 af3d
000003e0: fadc 04bd e7c2 1d3e de55 d83d b34e 58be
000003f0: db45 1b3e 09ad c3bd 52da ba3c 1cce 08be
-0.07228905 0.0045963526 -0.05484491 -0.09447554 -0.18692026 0.11459456 -0.16734973 -0.096515246
-0.10108437 0.0041871667 -0.09917979 -0.14826015 0.08972563 0.009282761 0.12260878 -0.11951048
-0.01522173 0.1639412 0.065403365 -0.12781963 -0.05818729 0.15525709 -0.0067446195 -0.10615265
0.08108027 -0.11806917 -0.13304731 0.1414708 -0.13164654 -0.061183184 0.0026135603 -0.115773305
-0.023023099 0.022490041 -0.18341018 0.12917747 0.11675108 0.025893463 0.21478474 -0.11717922
0.12992997 -0.17524737 0.05184859 -0.007323363 -0.09742002 0.0984651 0.17499384 -0.17320852
-0.19508246 0.016553584 -0.090168685 0.053972792 -0.114615746 -0.10781159 -0.060450282 0.11012027
0.08437663 0.13596103 0.021778837 -0.070349425 0.03473398 0.034483567 0.10978102 0.09095164
-0.07935269 0.07216883 0.08256757 -0.14012055 0.14650716 -0.13890786 -0.12543291 0.07608788
0.04745959 0.15093972 0.050956167 -0.023305863 0.107189864 -0.055465207 0.16076097 0.002693549
0.04311952 -0.042966377 0.088388614 0.1318273 -0.041160855 -0.08334585 -0.036431655 0.14611359
0.04612689 0.1260461 0.005867347 0.14448419 -0.10792714 -0.16854422 0.22264484 0.008220822
-0.16160879 -0.014707426 0.049763646 -0.11624774 -0.045154363 0.117007695 -0.11711428 0.18891038
-0.059150074 0.008748654 -0.1397234 0.024424847 0.17687318 0.12907934 0.06453115 -0.051056232
-0.03709737 -0.013598938 -0.08442496 -0.035885174 0.11469379 0.10614646 0.06228631 0.018123701
0.09705123 0.026383894 0.063096255 -0.095607765 0.036962867 -0.07999578 -0.10845566 -0.09404265
-0.026296332 -0.045366343 0.116034366 0.046826757 0.09740135 0.18656786 -0.085278146 0.1094011
-0.05261854 -0.1902189 0.114476584 -0.012350232 -0.065095976 -0.046838567 0.0035421846 -0.015779132
-0.1442741 0.0026134527 -0.15825346 -0.18078269 -0.18810128 -0.016124645 -0.03041875 -0.075620234
-0.033684343 -0.1597279 0.07330856 -0.045286257 -0.08553323 -0.06161799 0.07608439 -0.09691829
-0.11237993 -0.14564878 -0.17977525 -0.08617416 -0.09766021 -0.02862683 -0.008037811 -0.09746678
0.19713473 0.17049895 0.097546205 -0.09703776 -0.036857843 0.11659652 0.034739003 -0.1444822
-0.03388492 0.051597603 0.13260359 0.042094465 -0.19333987 -0.07588106 -0.17320804 0.14108016
0.13429631 -0.08265726 0.112697914 -0.1476624 -0.150991 -0.1525583 0.08722397 -0.086238965
0.0053749382 0.14282273 0.14615814 -0.13933814 0.001981616 -0.084233254 0.019163713 -0.02418767
-0.11415351 -0.17582633 -0.09182256 -0.07326561 0.04784845 -0.17067108 -0.09664995 -0.009516403
0.029476762 0.018277455 -0.08165181 0.057351127 -0.12708512 -0.03126487 -0.13781446 -0.16959272
-0.040117905 -0.16757068 -0.06713909 0.0733407 0.08151646 -0.1161824 -0.008369818 -0.028208926
0.034243185 0.052424952 0.062404983 0.117040835 -0.10854552 -0.09062018 -0.12179407 0.14696322
0.024706522 0.046550438 -0.040532157 -0.04070039 -0.023547938 -0.18600443 0.075247616 -0.08831742
-0.07321057 -0.11889194 0.058167834 -0.26220274 -0.057015255 0.13901713 -0.14312401 0.08570379
-0.032437302 0.1540638 0.10563253 -0.21123771 0.15163366 -0.09554488 0.022809181 -0.13359874

fc2.bias f4 [64]
00000000: 5aa7 d7bd ade0 29bd 906a 8dbd 9824 fbbc
00000010: 2320 00be 236c fabd 1efa 38be dbf2 9bbd
00000020: f9b6 3dbe e020 bebd cc28 c5bd 966f 53be
00000030: f511 1dbb d040 25be 14fb 3ebd d59c 8ebc
00000040: 3c44 6dbd d7cd 94bc 2d88 22bd c40c 8abd
00000050: 3463 0dbe 504f e2bd 5987 aebd 318d 36bd
00000060: c7be 35be cdef cabd b84b 0bbe 7f8c 02be
00000070: ad31 00be 92bf 41be 5608 3ebe 2ac5 16be
00000080: f596 a8bd 2aeb 23be 0233 22bd 90a5 83be
00000090: d3bc 01be 4e84 88bd 39b6 45bd 8002 87bd
000000a0: 937a 37be f198 a7bc cab9 0ebc 4b9d 52ba
000000b0: 42c3 17be 0d5a 98bc cc50 03be 0cbb 41bd
000000c0: 61c5 7dbc c97d a4bd a190 dcbd 6be1 b5bd
000000d0: ea72 16be 4da9 32be ae96 ecbd ce72 3ebe
000000e0: 2598 4bbe d48a 8abb 8f34 02bd 4af6 3fbe
000000f0: 9534 debd 8481 74be 9614 26be a435 8dbd
-0.10529967 -0.041474033 -0.06905091 -0.030657098 -0.12512259 -0.12227657 -0.18064162 -0.076146804
-0.1852683 -0.09283614 -0.09626922 -0.20648035 -0.0023967002 -0.16138005 -0.046626166 -0.017408768
-0.0579264 -0.018164558 -0.03968065 -0.06740716 -0.13807374 -0.11050284 -0.08521909 -0.044568244
-0.17748557 -0.099090196 -0.13603103 -0.12748908 -0.1251895 -0.18920735 -0.18557867 -0.1472365
-0.08231918 -0.16007677 -0.039599426 -0.25712252 -0.12669687 -0.0666586 -0.048269484 -0.06592274
-0.17917852 -0.02045867 -0.008711288 -0.0008034303 -0.14820579 -0.018597627 -0.1282379 -0.047297522
-0.015488953 -0.08031804 -0.10769773 -0.08880886 -0.14692274 -0.17447396 -0.11552177 -0.18598482
-0.19882257 -0.0042279754 -0.031788405 -0.18746296 -0.10849873 -0.23877531 -0.1621879 -0.06894997

fc3.weight f4 [27, 64]
00000000: 2c08 bebd fcb9 d43d 40ea 96bc 2a50 b03d
00000010: cd97 873b a8a4 0d3d f2ba ee3d ea27 eebd
00000020: 17f7 8f3c b203 51bd 5c16 9e3d 087e 33bd
00000030: 6913 3c3d 5433 e43d 8173 4e3d fd37 cc3b
00000040: e668 1dbb 5fc4 8cbd e8ed 073d fe8f 623d
00000050: 80a2 d3bb 611e 5c3d 9a61 d5bd 6b09 053e
00000060: 308d 3b3d aa50 833d 321d d0bd 204f 98bd
00000070: 8ddd 08bb f33c f43d 88bb 17bd 30d8 b63d
00000080: 6d77 643c c0ab d8bc 75fc 02bd c88b 5bbd
00000090: f2dc febd 7aa5 c53d 8e61 dd3d cd1e 03bc
000000a0: 80be c8bd 607b ccbd 60ef 6f3d c89e d83b
000000b0: f6fb b23d d2fe 82bd 9048 55bc 914a 53bd
000000c0: 8ac3 9ebc d340 153e 0055 063d 324c f93b
000000d0: ac6b 293d 8e76 863d 4cfb 5c3d 24b5 ad3d
000000e0: a1f3 1cbe d9fe a63d 2748 67bd 80bb ddbc
000000f0: 9f6a d5bd b613 9b3d 78c1 bebd a40a 753d
00000100: ef1c 65bd fcc6 65bd 14d3 003e 4504 f9bc
00000110: 5cae 1b3d 68fc 0ebd 4858 dbbd 1235 89bc
00000120: 591c 033e 7017 f53d d040 193c 84d3 8e3d
00000130: ea44 f33c 68bb bbbc 4076 18bd 9065 aebc
00000140: 203f 90bb 3806 54bd be1c 1dbd d406 77bd
00000150: c714 fe3c 90c5 17bc ee7e 65bd 1c0f 4bbd
00000160: 52b5 e1bd 4a1d a0bd 16d1 2ebd 043c 91bd
00000170: c600 fe3c 41a6 1b3e 003d 06ba 242c 843b
00000180: c489 823d 7804 d33c d30d f1bd a0cb 293c
00000190: 10cb 393c 3a86 ba3d 8853 47bd eeaf abbb
000001a0: 8b95 2cbd c715 873c 7db4 a9bd 3cb1 273d
000001b0: dc52 d43d 8031 18bb 3e44 103e ace5 81bd
000001c0: 6049 8abd e80b 11bd 2626 9a3c 809b dfbb
000001d0: 9135 363d d2ca c63d 3656 d63d 2429 33bd
000001e0: 5896 473d 619d 8cbd 166f 02be 487e d4bd
000001f0: 268b 46bd ccb3 823d c8aa b73c fc42 1d3c
00000200: d809 24bd d44c 04bd 8c3a a6bd 5cbe babb
00000210: 2e0d 323c 083c cb3c 80b1 b3bd 8070 1b3d
00000220: 4604 13bd 0396 97bc 46b1 86bd 4826 723d
00000230: 5232 88bd 58c4 49bd fb96 bdbc b5f2 cabd
00000240: ebba 9cbd f086 02be fc70 5f3d 5c3f 0f3d
00000250: 47cf 8bbd fed2 d33d a4a8 3abd c6b9 33bd
00000260: 145c 75bd 4646 a3bd 005c 503d 110f 2f3c
00000270: e2ac d1bd 5eee e63b 4090 2a3b 482a dd3d
00000280: cb2a 05be 4578 1dbe 695f ebbb a6da 3ebd
00000290: 2094 b1bd 17cf be3b 3fb9 edbb 28f8 99bc
000002a0: 165f fcbd 8bf7 f7bc 581d 1f3c c5d6 463d
000002b0: e6d1 4bbc 661b afbd f90b 093d 08c3 233a
000002c0: 3c50 34bd 1c7a 06bb e226 d2bd 548f 483d
000002d0: 8048 15be 1836 fabd 3a50 c63d 1483 eb3d
000002e0: ab36 15be ff45 623d 27d5 f0bc b2a0 f33d
000002f0: 207f 01bd 2487 05bd a03d f73b 65f7 af3c
00000300: 26a8 e33d b0d3 143d 2884 f63c 68eb 973d
00000310: 5e90 05bd 004a 97bd 3024 1c3d 426b 123c
00000320: 8013 89bd 70e3 88bc 4845 c6bc 0c83 f2bd
00000330: 6a1e 23bd 00c9 d5bd 0031 ca3c 146b a7bd
00000340: de95 273d 4482 573d 6c39 a9bc 40e6 febd
00000350: 068a f4bd ec87 b8bd 64c3 2ebd 1b85 7bbd
00000360: 4e70 e8bd d239 be3d 8c66 b8bd 807f 3cbb
00000370: b80c 0a3d 8819 803d da37 9e3d 8884 eebd
00000380: 0881 cd3c 50db 5e3d 2146 f1bd 6a24 813d
00000390: 487e aebd dd42 a63c 24eb 973d 6335 19be
000003a0: 74be cb3d a70f 01bd 5087 e4bc 2474 a43d
000003b0: 8a0d d9bd 48ac 933c 7a4c ce3d dfc1 433c
000003c0: 06a7 da3d 66b5 e3bd 2c04 7f3d 6200 ae3d
000003d0: a683 91bd c8c1 b73c 60c9 e23b 70e3 56bc
000003e0: e40b 6a3d 6f9d 9fbd ff25 2b3c cef7 86bd
000003f0: 263a 8c3d f860 a3bc 604d b4bd 50a6 8d3c
-0.092789024 0.10387036 -0.018422246 0.0860904 0.004137969 0.034580857 0.11656751 -0.11628707
0.017573876 -0.051028915 0.077191085 -0.043821365 0.04591695 0.111426026 0.05040312 0.0062322603
-0.0024018823 -0.06873392 0.03318587 0.055313103 -0.0064585805 0.05373991 -0.10419007 0.12991874
0.045788944 0.0641187 -0.101618186 -0.07436967 -0.0020884008 0.11925688 -0.037044078 0.08927953
0.013944489 -0.026449084 -0.031979043 -0.053600103 -0.12444486 0.09650703 0.10809623 -0.008002949
-0.0980196 -0.099844694 0.058577895 0.006610725 0.08739464 -0.06396259 -0.0130177885 -0.051584784
-0.01938035 0.1457551 0.032795906 0.00760796 0.04136245 0.06565581 0.053950593 0.084818155
-0.15327312 0.08154077 -0.056465294 -0.027066946 -0.10420727 0.07572119 -0.09314245 0.0598246
-0.055935796 -0.05609797 0.1258052 -0.030397544 0.03800808 -0.034908682 -0.10710198 -0.016748939
0.12803783 0.11967361 0.009353831 0.06973937 0.029695947 -0.02291651 -0.037222147 -0.021288663
-0.0044020563 -0.051763743 -0.03835749 -0.060309246 0.031015767 -0.009263411 -0.056029253 -0.049574956
-0.11020912 -0.078180864 -0.04267987 -0.07091525 0.031006228 0.1520014 -0.0005120784 0.0040335823
0.06373933 0.025758967 -0.11770215 0.010363489 0.011339918 0.09107633 -0.048663646 -0.0052394783
-0.042134803 0.016489876 -0.082863785 0.04094051 0.10367367 -0.0023222864 0.14088532 -0.063426346
-0.067522764 -0.035411745 0.018817019 -0.006823957 0.04448468 0.09706654 0.10465662 -0.043740407
0.048727363 -0.06865955 -0.12737688 -0.10375649 -0.048472546 0.0638195 0.022420302 0.00959849
-0.04004845 -0.03229983 -0.08116636 -0.005698962 0.0108674 0.024808899 -0.0877409 0.037949085
-0.035892747 -0.018504148 -0.06576781 0.05911854 -0.06650223 -0.049259514 -0.023143282 -0.09909574
-0.07652839 -0.12746787 0.05455111 0.034972534 -0.068266444 0.10342978 -0.045570984 -0.04387834
-0.059902266 -0.07972388 0.050868988 0.010684744 -0.10238053 0.0070474586 0.002602592 0.1079908
-0.13004605 -0.1537791 -0.0071830046 -0.04659524 -0.08670831 0.005823027 -0.007254749 -0.018795088
-0.12322824 -0.030269405 0.009711586 0.048544664 -0.01244018 -0.08550148 0.033458684 0.00062470185
-0.04402183 -0.002051956 -0.102613226 0.048964813 -0.14578438 -0.12217349 0.09683271 0.114996105
-0.14571635 0.055242535 -0.029398514 0.118958846 -0.031615376 -0.032599583 0.007545188 0.021480272
0.11116056 0.036334693 0.030092314 0.07417947 -0.032608382 -0.07387161 0.03812045 0.008936705
-0.066931725 -0.016710013 -0.024202958 -0.118414015 -0.039823927 -0.10438728 0.024681568 -0.081747204
0.04091441 0.052614465 -0.020657264 -0.124462605 -0.119403884 -0.090103 -0.042666808 -0.061406236
-0.113495454 0.09288372 -0.09003934 -0.002876252 0.033703536 0.0625487 0.077254966 -0.11646372
0.025085941 0.05440837 -0.11780954 0.063057736 -0.0852018 0.020295555 0.074178964 -0.14961772
0.099484354 -0.031509068 -0.027896553 0.080299646 -0.105982855 0.018026486 0.100731805 0.011948078
0.106763884 -0.111185834 0.062259838 0.08496167 -0.07105188 0.02243127 0.0069209784 -0.013115749
0.057140246 -0.077937 0.010446071 -0.06590234 0.068470284 -0.0199437 -0.088038206 0.017291218

fc3.bias f4 [27]
00000000: 5839 e1bc db9a 7ebc 7f9b 32bc 1f89 96bc
00000010: 3ad2 87bc 45bc a8bc 09bd a6bc 9976 f6bb
00000020: 78e0 32bd 0059 12bc f50b 473d 2fb4 50bc
00000030: fb95 b7bc b789 f7bc db8c 92bc a0f1 0ebd
00000040: a69e f83b 6c4f 48bb 0e9d e1bc fe62 1cbc
00000050: 5fd4 53bc 7a03 ddbc 98c5 12bd 5f5c cebc
00000060: b3ac 74bc b04b 03bc 2ab3 cabc
-0.027493164 -0.01553985 -0.010901331 -0.018375931 -0.016579736 -0.020597586 -0.02035381 -0.007521462
-0.0436711 -0.008932352 0.048595387 -0.012738272 -0.022410383 -0.030217035 -0.01788943 -0.0348984
0.0075872717 -0.0030564917 -0.02754071 -0.009545086 -0.012929051 -0.026979197 -0.03583297 -0.02519053
-0.014933753 -0.008013651 -0.024743635
